fashion_mnist_model.pth (torch, 952699 bytes, 14 tensors)

fc1.weight f4 [256, 784]
8.768649e-06 0.00022392995 -0.013634904 -0.004845941 -0.012901617 -0.036849253 -0.0656246 -0.027170394
0.03481363 0.06841686 0.031132855 -0.0902447 -0.09289719 -0.13721956 -0.10920567 -0.06148946
-0.02896196 0.06604491 0.10627344 0.10486876 0.034127366 -0.06270136 -0.030878458 -0.015423607
0.0048572295 -0.009124863 -0.00994477 -6.25919e-05 -1.3067181e-05 -0.011034352 -0.002256791 -0.016086355
-0.0026734807 -0.021789063 -0.04301213 0.014326796 0.006679502 0.020432094 0.07689722 -0.033109553
-0.038698632 -0.033792663 -0.08946472 -0.045556575 -0.03316053 0.005411942 0.054827854 0.11747189
0.09545753 0.03966135 -0.032851018 0.015183875 0.038942825 0.01478969 0.00025603594 0.0008228469
-0.0004893329 -0.013396865 -0.0049121156 0.03052832 0.021160847 0.016095795 0.0030660008 0.0065272944
0.02953136 0.023751378 0.024593528 0.0035195765 -0.02916942 -0.0063179056 -0.0020146056 0.012826398
-0.013569623 0.06824515 0.046218276 0.042385094 0.035011303 0.09140803 0.1050088 0.051439933
0.08115968 0.0041851667 -0.009574489 -0.012340503 -0.007459356 -0.020432467 0.01987535 0.017499344
0.051620457 0.05066052 0.018792989 0.0051275576 0.0049555292 -0.023381708 -0.05886189 -0.05078926
0.0024747604 -0.041098725 -0.06443276 -0.079772 -0.029860482 0.009890111 -0.021034257 0.032192312
0.005434002 0.06414414 0.057310667 0.13179225 0.06358874 0.007109328 -0.041677304 -0.011895809
-0.010202083 -0.028556071 0.004758607 0.041277554 0.075664535 0.029876383 0.015788775 -0.040653188
-0.00674466 -0.04281724 -0.05708512 -0.04362431 0.0034282291 0.0438178 -0.060477152 0.0037620342
-0.030929046 -0.07526208 -0.057929885 0.02049557 0.0016911881 0.03556512 0.06791476 0.067112535
0.059820145 0.011852807 -0.051132206 -0.029074745 -0.019246658 -0.03653781 -0.02007981 0.015841108
0.083110504 -0.03606227 -0.0060848095 -0.06850464 -0.025959907 -0.04221267 -0.06330263 -0.07634729
-0.046550337 0.0105967745 -0.03747851 -0.058481436 -0.03751279 -0.03154781 -0.007700691 -0.009415982
-0.0049462398 0.012160313 0.023541521 0.05429406 0.046932623 0.0018820937 -0.026748374 -0.029728841
-0.0118200295 -0.028570408 -0.027476083 0.022968985 0.06259214 0.029263193 -0.0034312564 -0.006211247
0.02450256 -0.0034464127 0.0019619155 -0.023922896 -0.05229914 -0.007981355 0.020021688 0.025345087
0.0058865165 0.0034388397 0.04524244 0.022068003 -0.02109463 0.010320826 0.032582525 0.05902174
0.08247366 0.050653037 0.00293612 -0.024498172 -0.017478196 -0.02375683 -0.018835431 0.0111181615
0.010853798 0.048936334 0.048005387 0.00071683706 -0.02084921 -0.0476218 -0.020312471 0.02319445
-0.026383417 -0.018530363 -0.014920231 0.014382372 0.02662092 0.04103755 0.02225727 0.051996037
0.016178157 -0.010316968 -0.008955389 0.06831576 0.098703034 0.046791565 0.017201813 -0.012859674
-0.025444446 -0.033853184 -0.03680325 -0.012580119 0.043949284 0.01520085 0.03282556 0.036283318
-0.03983876 -0.07834494 -0.032108862 -0.037951276 -0.015624028 -0.019865902 0.0097250445 0.02333377
-0.0025414987 0.043596648 0.033975452 0.001924696 -0.0142633235 -0.0055896034 -0.00052947685 0.035486847
0.10074724 0.04834407 0.023759125 -0.009100859 -0.029924937 -0.072356366 -0.073020734 -0.07246306
00000000: 101d 1337 bdce 6a39 ef64 5fbc b3ca 9ebb
00000010: 4e61 53bc 3eef 16bd 3166 86bd 7294 debc
00000020: bd98 0e3d 241e 8c3d 540a ff3c 37d2 b8bd
00000030: e240 bebd 4983 0cbe 39a7 dfbd 5fdc 7bbd
00000040: a241 edbc 8e42 873d e4a5 d93d 6fc5 d63d
00000050: 23c9 0b3d 9269 80bd d2f4 fcbc 4cb3 7cbc
00000060: 6529 9f3b 7380 15bc 63ef 22bc c543 83b8
00000070: 1d3b 5bb7 6dc9 34bc ace6 13bb 88c7 83bc
00000080: 9035 2fbb fa7e b2bc 7d2d 30bd f0ba 6a3c
00000090: b9df da3b 3561 a73c 4a7c 9d3d e29d 07bd
000000a0: 7582 1ebd 2d6a 0abd 4739 b7bd 8899 3abd
000000b0: 56d3 07bd a956 b13b 2c93 603d 1a95 f03d
000000c0: 3d7f c33d f173 223d ca8e 06bd cac5 783c
000000d0: 8382 1f3d 7550 723c 903c 8639 52b4 573a
000000e0: 9346 00ba 867e 5bbc d0f5 a0bb 8716 fa3c
000000f0: 8359 ad3c 54db 833c f5ee 483b eae2 d53b
00000100: c0eb f13c 4092 c23c 5e78 c93c b2a8 663b
00000110: b5f4 eebc 6f06 cfbb 7907 04bb d025 523c
00000120: 2053 5ebc 1dc4 8b3d 604f 3d3d fe9b 2d3d
00000130: 0368 0f3d 2234 bb3d db0e d73d aeb2 523d
00000140: 0c37 a63d b923 893b 51de 1cbc d22f 4abc
00000150: 9d6d f4bb fd61 a7bc a1d1 a23c c95a 8f3c
00000160: f96f 533d 6881 4f3d c1f3 993c 1205 a83b
00000170: fe61 a23b ff8a bfbc 2a19 71bd 6608 50bd
00000180: 972f 223b 2357 28bd 53f5 83bd 815f a3bd
00000190: f89d f4bc 220a 223c 0950 acbc 16dc 033d
000001a0: b60f b23b 015e 833d 97be 6a3d 8cf4 063e
000001b0: d03a 823d 5ef5 e83b d2b5 2abd a4e6 42bc
000001c0: a326 27bc 6cee e9bc 17ee 9b3b a712 293d
000001d0: 02f6 9a3d 51bf f43c 7657 813c f583 26bd
000001e0: 4f02 ddbb 2161 2fbd 16d2 69bd 68af 32bd
000001f0: 24ac 603b 4b7a 333d e4b6 77bd 768c 763b
00000200: e95e fdbc 0123 9abd e347 6dbd 53e6 a73c
00000210: dbaa dd3a bbac 113d e516 8b3d 4c72 893d
00000220: f805 753d 4732 423c 0170 51bd 292e eebc
00000230: 2bab 9dbc aca8 15bd 6a7e a4bc 36c5 813c
00000240: d735 aa3d 08b6 13bd 1563 c7bb 294c 8cbd
00000250: dfa9 d4bc 31e7 2cbd cfa4 81bd f85b 9cbd
00000260: 91ab 3ebd 189e 2d3c 1183 19bd 3b8a 6fbd
00000270: 03a7 19bd 4738 01bd 1456 fcbb 7e45 1abc
00000280: 1114 a2bb 0d3c 473c 26da c03c 7363 5e3d
00000290: 6c3c 403d 96b0 f63a 681f dbbc e689 f3bc
000002a0: cca8 41bc 7d0c eabc 8615 e1bc 7429 bc3c
000002b0: 4f30 803d 5db9 ef3c eede 60bb b787 cbbb
000002c0: 98b9 c83c 36dd 61bb 7b93 003b f3f9 c3bc
000002d0: 9f37 56bd 3bc4 02bc 8604 a43c 80a0 cf3c
000002e0: aee3 c03b 285e 613b 2350 393d f5c7 b43c
000002f0: a5ce acbc af18 293c 4175 053d c8c0 713d
00000300: f3e7 a83d 8f79 4f3d eb6b 403b 64b0 c8bc
00000310: 6f2e 8fbc af9d c2bc c34c 9abc f328 363c
00000320: 21d4 313c 7771 483d 4ca1 443d 1fea 3b3a
00000330: f6cb aabc 140f 43bd 5766 a6bc 4a02 be3c
00000340: 0922 d8bc fdcc 97bc fc73 74bc 0aa4 6b3c
00000350: 1e14 da3c fd16 283d e154 b63c ccf9 543d
00000360: 0e88 843c 8008 29bc a0b9 12bc 22e9 8b3d
00000370: d124 ca3d 83a8 3f3d d1ea 8c3c 62b1 52bc
00000380: df70 d0bc a3a9 0abd 01bf 16bd d81c 4ebc
00000390: 2a04 343d fc0c 793c 1874 063d d19d 143d
000003a0: f82d 23bd 5073 a0bd 9584 03bd cc72 1bbd
000003b0: ecfb 7fbc d1bd a2bc cb55 1f3c 7626 bf3c
000003c0: 468f 26bb 6692 323d d829 0b3d 1546 fc3a
000003d0: b7b0 69bc fe28 b7bb 97cc 0aba a85a 113d
000003e0: 9254 ce3d 6e04 463d 7fa2 c23c c51b 15bc
000003f0: 2425 f5bc 932f 94bd e58b 95bd 8367 94bd

fc1.bias f4 [256]
-6.473698e-07 1.7448574e-06 2.7708609e-06 -9.878545e-07 -9.755235e-06 -2.1182062e-05 4.0740133e-07 -4.121828e-06
-7.921201e-06 6.1990254e-06 3.5598798e-06 8.744575e-06 -1.0615017e-06 1.8255811e-06 -9.847374e-06 4.7481308e-09
6.879856e-06 7.031322e-07 -6.5815666e-06 -8.017564e-07 -3.1815368e-06 1.0964839e-05 3.3220263e-06 -7.1965374e-06
-1.0467011e-06 -2.669748e-06 2.4441251e-06 -4.7269168e-07 3.6931722e-06 1.5285418e-06 3.4200561e-06 6.8422705e-06
-2.973436e-07 1.1336808e-05 -1.7019334e-05 4.9417476e-06 1.5815906e-06 2.822319e-06 -5.115835e-06 7.591491e-06
1.2168257e-06 -3.0017168e-06 -4.7141265e-07 -1.325377e-05 5.029682e-08 -5.375571e-06 1.16249885e-05 4.0151667e-07
-7.536983e-06 -5.166364e-07 6.5871393e-07 3.0978167e-06 8.163156e-06 5.632426e-06 -1.3451796e-05 3.8352564e-06
4.55376e-06 2.2487575e-07 -5.611787e-06 1.8163519e-08 -1.02178205e-07 3.402814e-06 7.1197815e-07 7.4945965e-06
7.1239856e-06 1.2112139e-05 5.3388144e-06 -7.931225e-06 5.113984e-06 1.8664661e-05 7.448627e-06 -2.5723984e-06
-3.0196675e-06 8.54626e-06 -1.9997174e-07 1.1155762e-06 -1.819958e-06 1.3638623e-06 1.9784288e-06 -6.1668516e-06
-8.432337e-06 -3.393789e-06 4.7337367e-06 -4.155854e-06 3.3679652e-07 -6.4217265e-06 -4.8673764e-06 -3.4783423e-06
-3.9415336e-06 1.0253429e-05 6.730635e-06 5.526923e-06 -1.1760985e-05 3.6117674e-06 -9.291702e-06 7.725904e-06
3.968802e-06 5.4868326e-07 -6.144548e-06 1.3495751e-06 -7.331283e-07 -4.697257e-06 -7.4892578e-06 5.375668e-06
7.4017e-07 6.8159807e-07 -2.9803136e-06 2.5980717e-06 2.4716571e-06 -8.924766e-07 7.924316e-06 9.533049e-06
3.3163037e-06 -4.2187207e-06 5.3635886e-06 7.757508e-06 6.7604647e-06 -1.5300777e-06 7.042429e-06 4.9000037e-06
3.542843e-06 -5.2357535e-07 -1.0007055e-06 2.2384977e-06 -1.7401594e-06 6.345623e-06 -4.9044484e-06 -2.8265727e-06
-6.11657e-06 -3.818256e-06 -6.4938763e-07 -2.68441e-06 -4.573863e-06 -1.1721191e-05 8.322332e-07 -6.816779e-06
3.786151e-06 -1.7278504e-06 -8.270484e-06 3.16777e-07 5.674844e-06 -7.650472e-06 -6.628501e-06 -1.5511669e-06
2.342766e-06 -1.21679e-06 -9.672386e-06 1.8259536e-06 3.622584e-06 7.5082994e-07 -2.502737e-06 8.421637e-08
-2.2758272e-06 -3.0269634e-06 3.373695e-06 -7.9528945e-06 2.4378346e-06 -2.0007474e-06 -4.7457497e-06 -5.1493216e-06
-1.9110003e-06 7.2355726e-07 -3.6979263e-06 -3.112637e-06 -9.8202245e-06 7.407468e-07 6.8852487e-06 2.2233196e-06
-3.4564182e-06 7.505687e-07 -1.0549974e-06 7.870981e-07 -7.825102e-06 1.9321897e-07 5.726732e-06 3.8387484e-06
3.8441076e-06 -2.4056212e-06 -3.5307085e-07 -1.562291e-06 -8.12888e-06 -3.7320142e-06 -5.213237e-06 -9.658277e-08
7.008262e-06 1.1423014e-06 1.9917472e-06 2.9006226e-06 5.25619e-06 -7.8431003e-07 9.7186785e-08 -3.088304e-06
-1.0953647e-05 3.3598553e-08 6.304984e-06 9.176292e-07 -1.5463597e-06 3.3071453e-06 -4.7817393e-06 -9.074638e-07
6.935064e-06 -6.267923e-06 1.0271261e-06 -1.6980246e-06 2.8332518e-06 -2.973271e-06 2.0973962e-06 1.3049497e-05
2.4216497e-06 4.0133436e-06 9.538925e-06 -3.4037625e-06 -5.7892275e-06 -2.8158672e-07 1.556873e-08 -4.102939e-06
-1.48284225e-05 1.0404103e-06 3.6736174e-06 1.4564025e-06 3.1987938e-06 3.9973665e-06 6.2591544e-06 -4.000728e-06
1.0917993e-06 -3.0403628e-06 2.342942e-06 7.541871e-07 -7.867817e-06 7.693313e-06 7.3459387e-06 1.4561812e-07
-7.832969e-06 -7.32215e-06 -1.6912159e-06 1.5428104e-06 5.404472e-07 1.2375818e-06 3.029751e-06 4.2335805e-06
4.0009995e-06 1.677018e-06 -2.1444293e-07 -1.2155783e-06 -5.521046e-06 -9.6735e-07 2.8048466e-06 1.9761442e-06
-2.3141147e-06 3.3425558e-06 -9.4781e-06 2.9522662e-06 -2.9713651e-06 -1.1553299e-05 -1.4564489e-06 -8.96393e-06
00000000: eac6 2db5 d830 ea35 07f3 3936 6c96 84b5
00000010: 6aaa 23b7 22b0 b1b7 d0b8 da34 3c4e 8ab6
00000020: 4de5 04b7 3901 d036 45e6 6e36 aab5 1237
00000030: ec78 8eb5 7d06 f535 2636 25b7 0025 a331
00000040: 83d9 e636 e0be 3c35 3ad7 dcb6 4838 57b5
00000050: 6382 55b6 a0f5 3737 faef 5e36 c979 f1b6
00000060: 607c 8cb5 ec29 33b6 c005 2436 40c6 fdb4
00000070: 37d8 7736 4c28 cd35 1e84 6536 a896 e536
00000080: 98a2 9fb4 3833 3e37 bec4 8eb7 4ad1 a536
00000090: 0a47 d435 1267 3d36 b0a8 abb6 69ba fe36
000000a0: d051 a335 1a71 49b6 7616 fdb4 825c 5eb7
000000b0: f005 5833 ce5f b4b6 f208 4337 0890 d734
000000c0: 31e6 fcb6 fcae 0ab5 7ad2 3035 16e4 4f36
000000d0: 7df4 0837 2cfe bc36 06af 61b7 9ab0 8036
000000e0: 80cc 9836 6075 7134 e24c bcb6 0006 9c32
000000f0: 106d dbb3 e65b 6436 c41e 3f35 187a fb36
00000100: 920a ef36 3e35 4b37 1124 b336 5a10 05b7
00000110: ca98 ab36 0e92 9c37 38ef f936 78a1 2cb6
00000120: 7ea5 4ab6 e861 0f37 d0b7 56b4 e8ba 9535
00000130: 4845 f4b5 f40d b735 26c5 0436 daec ceb6
00000140: 9d78 0db7 dac0 63b6 7dd6 9e36 8472 8bb6
00000150: f6d0 b434 367a d7b6 7252 a3b6 776d 69b6
00000160: 8441 84b6 2406 2c37 b7d7 e136 e873 b936
00000170: 0c51 45b7 b161 7236 8ee3 1bb7 819e 0137
00000180: c02b 8536 3a49 1335 442d ceb6 0c23 b535
00000190: 31cc 44b5 219d 9db6 3c4c fbb6 a360 b436
000001a0: 18b0 4635 10f7 3635 6601 48b6 885a 2e36
000001b0: bfde 2536 8692 6fb5 aef2 0437 22f0 1f37
000001c0: aa8d 5e36 898e 8db6 e0f8 b336 3e26 0237
000001d0: f3d7 e236 125d cdb5 014e ec36 b66a a436
000001e0: 94c1 6d36 d38b 0cb5 fb4f 86b5 1939 1636
000001f0: 6c8f e9b5 7dec d436 e490 a4b6 26b0 3db6
00000200: f03c cdb6 921e 80b6 9451 2eb5 d025 34b6
00000210: 2f79 99b6 22a6 44b7 a166 5f35 b0bb e4b6
00000220: 9415 7e36 7de8 e7b5 75c1 0ab7 8011 aa34
00000230: 8a6a be36 875a 00b7 646a deb6 b031 d0b5
00000240: 6a38 1d36 9650 a3b5 9546 22b7 4a13 f535
00000250: 851b 7336 a48c 4935 b2f4 27b6 70da b433
00000260: 6aba 18b6 d622 4bb6 a467 6236 6c6d 05b7
00000270: ae99 2336 9444 06b6 ae3d 9fb6 56c8 acb6
00000280: bc3e 00b6 7a3a 4235 e429 78b6 b2e2 50b6
00000290: 8bc1 24b7 bcd7 4635 d607 e736 5734 1536
000002a0: d0f4 67b6 b07a 4935 6f99 8db5 f848 5335
000002b0: 8f48 03b7 a077 4f34 4128 c036 99ce 8036
000002c0: a2fc 8036 4270 21b6 b08d bdb4 e9af d1b5
000002d0: 4661 08b7 8473 7ab6 5ded aeb6 f068 cfb3
000002e0: 8328 eb36 2d51 9935 f5a9 0536 51a8 4236
000002f0: 545e b036 6089 52b5 00b5 d033 a940 4fb6
00000300: 8ec5 37b7 004e 1033 668f d336 0053 7635
00000310: 848c cfb5 53f0 5d36 d472 a0b6 7098 73b5
00000320: bfb3 e836 0c51 d2b6 c9db 8935 aee7 e3b5
00000330: e522 3e36 6888 47b6 fec0 0c36 2aef 5a37
00000340: a083 2236 5caa 8636 5f09 2037 326c 64b6
00000350: 1641 c2b6 fc2c 97b4 00bc 8532 faab 89b6
00000360: 97c7 78b7 3aa4 8b35 4488 7636 9c79 c335
00000370: dcaa 5636 1e21 8636 ba05 d236 fe3d 86b6
00000380: f089 9235 0909 4cb6 703b 1d36 5873 4a35
00000390: 0400 04b7 8712 0137 227d f636 345b 1c34
000003a0: 586a 03b7 cab0 f5b6 bcfd e2b5 9012 cf35
000003b0: 4013 1135 fd1a a635 ba52 4b36 2e0e 8e36
000003c0: 5340 8636 e615 e135 a041 66b4 f426 a3b5
000003d0: 6d41 b9b6 e5d5 81b5 e63a 3c36 e69d 0436
000003e0: 304c 1bb6 ac50 6036 2104 1fb7 8c1f 4636
000003f0: aa67 47b6 0bd5 41b7 347b c3b5 c963 16b7

bn1.weight f4 [256]
0.57483894 0.58238614 0.6784488 0.7751654 0.6676336 0.74247503 0.66727114 0.71712244
0.6351172 0.7261502 0.66486365 0.65220815 0.60144144 0.5702656 0.6613674 0.58564556
0.6971381 0.584408 0.6109645 0.6753262 0.5790337 0.70588666 0.6597031 0.6393488
0.746003 0.7774586 0.73304826 0.67913544 0.56425875 0.6977832 0.59348696 0.7588683
0.7110156 0.6706834 0.6955634 0.71297413 0.6499111 0.61762494 0.64167553 0.51953536
0.7137317 0.6626633 0.52563244 0.67637515 0.59808666 0.65368694 0.7166365 0.6678462
0.7186072 0.5070746 0.5153381 0.6397368 0.6811077 0.6151198 0.7275679 0.56311077
0.5371612 0.6177241 0.70422786 0.5186516 0.6880408 0.6670593 0.7504902 0.70531994
0.6469535 0.5984375 0.70973647 0.6676161 0.6409062 0.7615584 0.59666055 0.6717164
0.6920196 0.72557837 0.4781171 0.5880709 0.672238 0.72158134 0.64887756 0.49553752
0.72911423 0.68675023 0.6212933 0.73367894 0.63189423 0.60309577 0.6179613 0.60416234
0.69647187 0.7236435 0.73399866 0.5585851 0.72488815 0.5862785 0.75201154 0.6467021
0.7064379 0.57738066 0.7156203 0.65130824 0.697704 0.7075148 0.63198847 0.66506726
0.66345704 0.63754594 0.7398248 0.6993138 0.65423506 0.71578133 0.6280327 0.64597553
0.6160467 0.5794191 0.77802116 0.70862556 0.6607283 0.72824746 0.6931047 0.70977
0.7979192 0.53121775 0.6195869 0.5954051 0.60272133 0.6396919 0.69689393 0.6483751
0.6980576 0.7091371 0.71277 0.65881115 0.73033947 0.7275859 0.65419596 0.68996197
0.72526807 0.7105949 0.6023699 0.742718 0.66610503 0.745231 0.5527152 0.67860305
0.59561276 0.70637494 0.6862317 0.62716377 0.67637944 0.7528448 0.69321615 0.7037753
0.6462171 0.75767684 0.7007475 0.6715209 0.65055776 0.5532708 0.6326886 0.7170991
0.6886464 0.6114506 0.6433252 0.55038476 0.6439508 0.64744705 0.70164865 0.64365095
0.67148614 0.6680629 0.642985 0.5155191 0.7370709 0.6302896 0.64441925 0.7110399
0.67380476 0.6473213 0.6103143 0.61021143 0.66524154 0.6131244 0.6905494 0.72375077
0.65445954 0.6220911 0.5954795 0.60957307 0.7298727 0.653498 0.6002483 0.62045234
0.7110401 0.58393276 0.59595597 0.71977663 0.5795259 0.6017702 0.77326524 0.6865154
0.6716976 0.7388099 0.6206472 0.5577589 0.6423666 0.70778257 0.7280407 0.714766
0.5733217 0.6889181 0.68102545 0.60602546 0.5618678 0.68987375 0.71430475 0.6309983
0.5271718 0.57701474 0.54781646 0.68148625 0.7284537 0.58583707 0.75404096 0.60556847
0.6450016 0.7337506 0.60429674 0.68279696 0.7916743 0.6257819 0.71293956 0.68139464
0.6494917 0.6042971 0.6661213 0.6369512 0.65963894 0.64635825 0.62153107 0.66845495
0.59774745 0.6348676 0.6884947 0.5564962 0.6582907 0.51043594 0.62320745 0.6295269
0.76632357 0.57892734 0.703141 0.5926119 0.6783949 0.64570075 0.6460414 0.5250173
00000000: a528 133f 4217 153f d2ae 2d3f 3d71 463f
00000010: 09ea 2a3f d812 3e3f 48d2 2a3f 5695 373f
00000020: 0a97 223f fbe4 393f 8134 2a3f 1df7 263f
00000030: 11f8 193f edfc 113f 604f 293f deec 153f
00000040: a477 323f c39b 153f 2b68 1c3f 2ee2 2c3f
00000050: 8d3b 143f fdb4 343f 4de2 283f 5dac 233f
00000060: 0dfa 3e3f 8707 473f 0da9 3b3f d2db 2d3f
00000070: 4373 103f eba1 323f c3ee 173f 3145 423f
00000080: 1e05 363f e8b1 2b3f 7110 323f 7985 363f
00000090: 9360 263f ab1c 1e3f d944 243f 4500 053f
000000a0: 1fb7 363f 4da4 293f d98f 063f ec26 2d3f
000000b0: 351c 193f 0758 273f 7d75 373f f8f7 2a3f
000000c0: a4f6 373f a4cf 013f 33ed 033f cac5 233f
000000d0: 135d 2e3f 7e78 1d3f e441 3a3f 0728 103f
000000e0: 6583 093f 2b23 1e3f 4748 343f 5ac6 043f
000000f0: 7123 303f 66c4 2a3f 2020 403f d98f 343f
00000100: bf9e 253f 3333 193f 4ab1 353f e4e8 2a3f
00000110: 6e12 243f 7ef5 423f bfbe 183f 9bf5 2b3f
00000120: 3228 313f 81bf 393f c4cb f43e d18b 163f
00000130: ca17 2c3f 8eb9 383f d71c 263f 18b7 fd3e
00000140: 3ba7 3a3f ddce 2f3f 140d 1f3f 62d2 3b3f
00000150: d2c3 213f 7c64 1a3f b632 1e3f 62aa 1a3f
00000160: fb4b 323f b340 393f 56e7 3b3f 6fff 0e3f
00000170: 4592 393f 5916 163f d483 403f 458e 253f
00000180: 1dd9 343f 38cf 133f e432 373f 23bc 263f
00000190: bb9c 323f b11f 353f ffc9 213f d941 2a3f
000001a0: 52d8 293f 3636 233f 2865 3d3f 3b06 333f
000001b0: f37b 273f 723d 373f c0c6 203f a75e 253f
000001c0: 3db5 1d3f cf54 143f 652c 473f 7c68 353f
000001d0: 7d25 293f 6d6e 3a3f 4f6f 313f 7db3 353f
000001e0: 6f44 4c3f e3fd 073f 3f9d 1e3f 786c 183f
000001f0: f24b 1a3f d9c2 233f a467 323f e9fb 253f
00000200: e7b3 323f 028a 353f 1878 363f d9a7 283f
00000210: 87f7 3a3f 1243 3a3f 6379 273f 59a1 303f
00000220: 2bab 393f 8ce9 353f ea34 1a3f c422 3e3f
00000230: dc85 2a3f 75c7 3e3f be7e 0d3f eeb8 2d3f
00000240: 147a 183f fdd4 343f e1ac 2f3f ce8d 203f
00000250: 3427 2d3f 70ba 403f 9d76 313f 9e2a 343f
00000260: 7c6e 253f 1cf7 413f 3064 333f cbe8 2b3f
00000270: f48a 263f 28a3 0d3f e1f7 213f ce93 373f
00000280: 214b 303f 0788 1c3f f6b0 243f 04e6 0c3f
00000290: f6d9 243f 17bf 253f 3f9f 333f 4fc6 243f
000002a0: 84e6 2b3f 2c06 2b3f aa9a 243f 0ff9 033f
000002b0: aeb0 3c3f a95a 213f a9f8 243f b606 363f
000002c0: 787e 2c3f d9b6 253f 8f3d 1c3f d136 1c3f
000002d0: 454d 2a3f b8f5 1c3f d8c7 303f bb47 393f
000002e0: a98a 273f 5d41 1f3f 5871 183f fb0c 1c3f
000002f0: f0d8 3a3f a54b 273f dfa9 193f f7d5 1e3f
00000300: b906 363f 9e7c 153f 9290 183f 4843 383f
00000310: cf5b 143f 9d0d 1a3f b6f4 453f 79bf 2f3f
00000320: 60f4 2b3f a522 3d3f bce2 1e3f 4ac9 0e3f
00000330: 2372 243f 3d31 353f e060 3a3f e8fa 363f
00000340: 36c5 123f f05c 303f af57 2e3f 7c24 1b3f
00000350: 91d6 0f3f 919b 303f addc 363f 1b89 213f
00000360: bbf4 063f 3db7 133f b33d 0c3f e275 2e3f
00000370: f17b 3a3f 6bf9 153f d408 413f 8906 1b3f
00000380: d31e 253f 14d7 3b3f 31b3 1a3f c8cb 2e3f
00000390: 2bab 4a3f 3e33 203f 3583 363f e16f 2e3f
000003a0: 1745 263f 37b3 1a3f ed86 2a3f 3c0f 233f
000003b0: 19de 283f bc77 253f a91c 1f3f dd1f 2b3f
000003c0: fa05 193f af86 223f 3041 303f 8976 0e3f
000003d0: bd85 283f eeab 023f 868a 1f3f ad28 213f
000003e0: c82d 443f 9534 143f 0c01 343f 6ab5 173f
000003f0: 4aab 2d3f a54c 253f f862 253f 8967 063f

bn1.bias f4 [256]
-0.27363092 -0.43915933 -0.39515272 -0.5744849 -0.3609967 -0.4807479 -0.3994476 -0.46390307
-0.34976053 -0.512057 -0.32716632 -0.35208324 -0.23950928 -0.21110643 -0.37585068 -0.41074672
-0.31052497 -0.3027581 -0.38019913 -0.5319361 -0.38293982 -0.51271075 -0.3289745 -0.4846017
-0.46346635 -0.3759974 -0.58362836 -0.32229638 -0.15474357 -0.5160634 -0.32206753 -0.48844296
-0.24281302 -0.4549643 -0.47147185 -0.4203086 -0.2155379 -0.35314274 -0.30116516 -0.24484587
-0.422516 -0.4641428 -0.37443385 -0.37883484 -0.44926834 -0.20258515 -0.46622244 -0.3223511
-0.37829843 -0.27180764 -0.13555394 -0.3513891 -0.33400983 -0.40237048 -0.44144887 -0.27467397
-0.21163137 -0.3135192 -0.36378533 -0.29536083 -0.4806478 -0.35269737 -0.24084295 -0.45085582
-0.4848684 -0.26775894 -0.5035053 -0.46925843 -0.22608139 -0.42310905 -0.32781193 -0.40059128
-0.31218055 -0.45451316 -0.19011071 -0.35981783 -0.27090186 -0.3914845 -0.43022132 -0.26090455
-0.5881045 -0.30276614 -0.36690798 -0.4025432 -0.48644972 -0.33655766 -0.40051696 -0.3263829
-0.4868099 -0.39892048 -0.4789598 -0.2487663 -0.44415775 -0.39989746 -0.5071037 -0.4427061
-0.45880234 -0.36123642 -0.3521582 -0.30269808 -0.4509958 -0.3743178 -0.39385918 -0.37292948
-0.4289758 -0.29203236 -0.5089623 -0.4737545 -0.39000052 -0.40337348 -0.41282612 -0.36210582
-0.22570431 -0.260335 -0.46213427 -0.37250224 -0.4071182 -0.48596853 -0.342842 -0.24081686
-0.41049558 -0.243752 -0.37636274 -0.26734912 -0.34265944 -0.43664113 -0.4352055 -0.2863082
-0.42256466 -0.41871396 -0.4866138 -0.35591313 -0.33102047 -0.4330452 -0.43836367 -0.32404098
-0.36466092 -0.38591474 -0.32346722 -0.381384 -0.49491057 -0.3856961 -0.39724526 -0.25221035
-0.3724588 -0.49732292 -0.3605048 -0.3888863 -0.4431096 -0.32905477 -0.37055972 -0.30120206
-0.4067939 -0.45833576 -0.3921334 -0.4080437 -0.37663132 -0.27107456 -0.402343 -0.44104213
-0.4293176 -0.38094348 -0.31227025 -0.2913769 -0.35052428 -0.3790797 -0.4591391 -0.3296036
-0.38206658 -0.22371186 -0.48016298 -0.3056007 -0.46375746 -0.25411198 -0.46369654 -0.4172207
-0.3829888 -0.38800082 -0.2964945 -0.38383365 -0.33176172 -0.37208936 -0.44446534 -0.38929975
-0.4921886 -0.30915707 -0.3582627 -0.1949823 -0.5230166 -0.31663635 -0.2824763 -0.43238753
-0.4231275 -0.40848833 -0.44748807 -0.34217435 -0.20580949 -0.50685054 -0.48238423 -0.30795684
-0.3244377 -0.36138272 -0.3342336 -0.31226578 -0.31681675 -0.4143891 -0.3927438 -0.4722388
-0.24194023 -0.44802356 -0.47326276 -0.28932795 -0.33167475 -0.32221392 -0.55637264 -0.24535255
-0.32397944 -0.38145596 -0.2720179 -0.34572336 -0.29199773 -0.30949146 -0.5470031 -0.3050873
-0.38440934 -0.39790782 -0.18201444 -0.36624852 -0.4514998 -0.40573356 -0.3967194 -0.43191808
-0.4032561 -0.3931218 -0.30986086 -0.35471192 -0.3514027 -0.28105322 -0.24035451 -0.32955155
-0.26680848 -0.2734687 -0.42762443 -0.27654654 -0.31438968 -0.223539 -0.31373844 -0.2929759
-0.46106836 -0.31101713 -0.34151337 -0.26964128 -0.4084063 -0.38425636 -0.27770722 -0.38917828
00000000: 5a19 8cbe 7ed9 e0be 7551 cabe 7111 13bf
00000010: 8fd4 b8be 9724 f6be 6584 ccbe b484 edbe
00000020: d013 b3be 2b16 03bf 5882 a7be 4144 b4be
00000030: ec41 75be 492c 58be 806f c0be 654d d2be
00000040: 21fd 9ebe 1c03 9bbe 76a9 c2be f72c 08bf
00000050: b010 c4be 0341 03bf 586f a8be b71d f8be
00000060: 764b edbe bb82 c0be ab68 15bf 0804 a5be
00000070: 1975 1ebe bb1c 04bf 09e6 a4be 3215 fabe
00000080: faa3 78be 15f1 e8be c264 f1be b032 d7be
00000090: f8b5 5cbe 20cf b4be 5232 9abe e0b8 7abe
000000a0: 0454 d8be 20a4 edbe cbb5 bfbe a4f6 c1be
000000b0: 8006 e6be 7b72 4fbe b5b4 eebe 340b a5be
000000c0: 55b0 c1be 5f2a 8bbe a7ce 0abe 46e9 b3be
000000d0: 5603 abbe 8103 cebe 9605 e2be 11a2 8cbe
000000e0: e5b5 58be 9785 a0be 1242 babe 8939 97be
000000f0: 7817 f6be c094 b4be 899f 76be 93d6 e6be
00000100: ac40 f8be b317 89be b9e5 00bf a442 f0be
00000110: e181 67be c0a1 d8be f7d6 a7be 4d1a cdbe
00000120: 21d6 9fbe f3b5 e8be 62ac 42be 0b3a b8be
00000130: a6b3 8abe a870 c8be f845 dcbe 4895 85be
00000140: 048e 16bf 2a04 9bbe 5ddb bbbe 241a cebe
00000150: f00f f9be 4951 acbe 8f10 cdbe a91b a7be
00000160: 263f f9be 4e3f ccbe 383a f5be 98bc 7ebe
00000170: a568 e3be 5cbf ccbe 8cd1 01bf 60aa e2be
00000180: 24e8 eabe fbf3 b8be 144e b4be 3efb 9abe
00000190: ece8 e6be 95a6 bfbe e9a7 c9be 9df0 bebe
000001a0: b7a2 dbbe 4485 95be 5a4b 02bf f38f f2be
000001b0: 26ae c7be f886 cebe f25d d3be ef65 b9be
000001c0: 081f 67be a14a 85be dd9c ecbe 9db8 bebe
000001d0: cc71 d0be ded0 f8be fd88 afbe b298 76be
000001e0: 7a2c d2be 209a 79be 9eb2 c0be fce1 88be
000001f0: 0f71 afbe 6d8f dfbe 41d3 debe fd96 92be
00000200: 655a d8be ad61 d6be 7225 f9be 3f3a b6be
00000210: 847b a9be 1ab8 ddbe 3471 e0be b3e8 a5be
00000220: d6b4 babe 9e96 c5be 7f9d a5be c344 c3be
00000230: eb64 fdbe f679 c5be bb63 cbbe b721 81be
00000240: ebb2 bebe 1ca1 febe 1694 b8be 1b1c c7be
00000250: 43df e2be de79 a8be 01ba bdbe 2837 9abe
00000260: 4a47 d0be fcaa eabe b6c5 c8be 1beb d0be
00000270: d2d5 c0be 49ca 8abe e7ff cdbe 46d0 e1be
00000280: 84cf dbbe 060b c3be e3e1 9fbe 5a2f 95be
00000290: eb77 b3be bc16 c2be 4814 ebbe cec1 a8be
000002a0: 3b9e c3be b914 65be ecd7 f5be b277 9cbe
000002b0: 9e71 edbe f71a 82be a269 edbe f49d d5be
000002c0: 1c17 c4be 0ba8 c6be 21ce 97be d885 c4be
000002d0: acdc a9be 7f82 bebe f690 e3be 4c52 c7be
000002e0: 2500 fcbe d649 9ebe 356e b7be 71a9 47be
000002f0: 6ae4 05bf 291e a2be bca0 90be e661 ddbe
00000300: 2ba4 d8be 6225 d1be 281d e5be 7a31 afbe
00000310: b9bf 52be f5c0 01bf 11fb f6be 85ac 9dbe
00000320: b31c a6be 2807 b9be ab20 abbe 4de1 9fbe
00000330: ce35 a2be cf2a d4be b715 c9be 49c9 f1be
00000340: 2ebf 77be 5863 e5be 7f4f f2be cb22 94be
00000350: 46d1 a9be 39f9 a4be 706e 0ebf b33d 7bbe
00000360: a2e0 a5be 324e c3be ee45 8bbe a702 b1be
00000370: ba80 95be aa75 9ebe 6508 0cbf 6734 9cbe
00000380: 4dd1 c4be 93ba cbbe fe61 3abe ed84 bbbe
00000390: fb2a e7be 4fbc cfbe ce1e cbbe 5e24 ddbe
000003a0: 9577 cebe 4347 c9be 15a6 9ebe cd9c b5be
000003b0: 0eeb b3be 35e6 8fbe 7e1f 76be fbba a8be
000003c0: 1f9b 88be 1704 8cbe 97f1 dabe 8297 8dbe
000003d0: aff7 a0be 68e7 64be 53a2 a0be f000 96be
000003e0: 2711 ecbe a33d 9fbe d7da aebe 6c0e 8abe
000003f0: a11a d1be 40bd c4be a42f 8ebe 6042 c7be

bn1.running_mean f4 [256]
0.7301522 -1.0686985 1.812117 -1.9517205 3.604652 0.62912476 2.3894956 1.4760393
-0.34935856 2.4447217 1.7765273 1.8695165 3.0952985 -2.3855307 -1.849187 2.2694354
-0.28071237 -0.44773093 4.893036 1.0749032 3.855611 0.98705465 -0.84420013 -0.89243716
5.527869 0.8083141 1.8613938 -0.6816062 -3.2385263 2.4329212 -1.2650857 -1.5958087
-0.44037178 1.8061831 5.3390026 2.2342014 1.0164684 -2.3996344 -0.6090906 4.124266
0.5175335 1.5083662 0.49299908 3.5225427 0.6466125 -0.77897495 -2.3421326 0.7509273
0.96811515 5.180257 -2.0792096 -3.3915458 -0.2410813 0.005918169 3.3698876 -0.9193043
4.0697665 -0.8106012 -2.855389 -1.9211185 -0.58371735 -2.321548 -3.4962687 4.8110857
1.7552541 -1.8402218 3.5564997 0.88304406 1.3451388 2.041163 0.8310886 -0.51985836
1.7999736 4.269865 3.5677302 4.409049 -0.8764703 4.3375688 3.0655296 0.23727027
2.5976605 -1.2812685 2.0031374 4.036331 0.5016554 -2.2411342 1.4015458 4.358728
2.6696143 -0.62606573 2.073852 -1.3728732 -1.0270178 1.575781 1.6440872 -1.558383
-0.8863594 -1.0284716 -1.3261023 1.9622906 2.153745 1.7992332 -2.1355186 -1.146511
2.7821996 -1.2164708 0.08372385 4.405608 2.1907454 3.6152492 4.1455765 2.4345226
5.0973196 -1.1984677 -0.9463925 1.6257098 1.4692131 -1.6336966 3.1977496 1.7885381
1.0395658 -0.027380317 0.113882914 -1.4295995 -1.9934491 0.14121203 1.1752598 -2.6514082
1.8753291 2.2239118 3.7773159 3.7879937 -0.6130719 2.5817742 -0.5629129 4.5633283
1.8605309 2.9929051 -1.7748443 3.3876092 0.23885459 4.2152557 -0.7517269 0.05083007
-0.28655717 3.632893 -1.2375199 0.14815852 3.871426 3.4153922 5.263289 3.5608492
0.7438504 0.8623878 -2.117369 -2.588239 1.7869188 2.3256874 2.2444403 3.0831914
1.4345627 3.3078194 -1.4170104 0.7403602 2.80743 2.8180242 3.8209257 4.0792904
-1.0686219 -0.7563198 0.025211867 2.773361 1.1787524 0.589206 0.83534735 1.0533642
2.1402838 3.4615033 -2.768798 2.549525 0.9599589 -1.1583259 -0.16159202 2.6485875
1.4165707 4.839046 2.9471707 1.29285 -1.8770951 1.3025317 -1.2072289 0.55184245
0.84177935 1.9540766 -0.20376629 -2.0226238 1.6561508 0.40500927 -1.6463608 -5.466575
3.3173745 1.6961325 0.59838384 0.22102368 1.4793944 3.337921 1.5400468 0.96847147
-1.6966308 5.052036 0.4437261 2.6000767 2.200387 -0.32945842 1.6013106 0.9111237
1.6994698 -0.35060644 1.0314331 -0.9531415 -2.3820553 0.9871053 -1.1728773 0.56126183
-3.644349 1.7314364 1.4375149 1.3064871 2.2805078 0.9073216 1.6174259 -0.99329376
2.8908784 3.2090232 2.6642175 0.79433155 2.8781233 -0.37593636 1.9349161 3.402231
0.42235577 0.9949577 0.93266726 -0.94507986 -4.6989737 1.5624658 -6.564322 1.2721455
3.175681 2.2823737 -2.9086635 3.7705078 3.7004273 -0.24176061 -4.0167217 2.3632073
00000000: 41eb 3a3f 1dcb 88bf 73f3 e73f fad1 f9bf
00000010: 9eb2 6640 520e 213f 7fed 1840 dbee bc3f
00000020: 20df b2be 5276 1c40 3f65 e33f 514c ef3f
00000030: 5f19 4640 89ac 18c0 29b2 ecbf 6e3e 1140
00000040: 88b9 8fbe fd3c e5be c093 9c40 6e96 893f
00000050: 55c2 7640 9daf 7c3f 801d 58bf c376 64bf
00000060: 4ee4 b040 aced 4e3f 2742 ee3f be7d 2ebf
00000070: 0444 4fc0 fbb4 1b40 54ee a1bf 7643 ccbf
00000080: 6978 e1be 0231 e73f 1cd9 aa40 28fd 0e40
00000090: a31b 823f 9c93 19c0 5ded 1bbf fdf9 8340
000000a0: 137d 043f 2512 c13f 606a fc3e 5771 6140
000000b0: 6688 253f e76a 47bf 80e5 15c0 c63c 403f
000000c0: 65d6 773f aac4 a540 c511 05c0 160f 59c0
000000d0: 04de 76be 33ed c13b 3dac 5740 8757 6bbf
000000e0: 873b 8240 8f83 4fbf b2be 36c0 36e7 f5bf
000000f0: 806e 15bf 3e94 14c0 dec2 5fc0 6af4 9940
00000100: 2bac e03f 638c ebbf b19d 6340 2d0f 623f
00000110: 822d ac3f 6aa2 0240 39c2 543f 7015 05bf
00000120: 8965 e63f bca2 8840 b155 6440 ee16 8d40
00000130: 5c60 60bf 5dcd 8a40 a331 4440 faf6 723e
00000140: 1240 2640 9b00 a4bf 6733 0040 a029 8140
00000150: 7d6c 003f be6e 0fc0 da65 b33f b37a 8b40
00000160: f6da 2a40 d845 20bf feb9 0440 4fba afbf
00000170: 5275 83bf 31b3 c93f 7371 d23f 1879 c7bf
00000180: 73e8 62bf f5a4 83bf b8bd a9bf 572c fb3f
00000190: f5d6 0940 464d e63f 56ac 08c0 dfc0 92bf
000001a0: 8f0f 3240 51b5 9bbf 6977 ab3d befa 8c40
000001b0: 2c35 0c40 3e60 6740 90a8 8440 38cf 1b40
000001c0: 3e1d a340 6467 99bf c746 72bf 4217 d03f
000001d0: 2d0f bc3f f81c d1bf eea7 4c40 d1ee e43f
000001e0: 7e10 853f b04c e0bc 723b e93d 1efd b6bf
000001f0: 5729 ffbf e399 103e ea6e 963f acb0 29c0
00000200: c90a f03f 9254 0e40 8bbf 7140 7d6e 7240
00000210: 48f2 1cbf ca3b 2540 0f1b 10bf c906 9240
00000220: e025 ee3f c28b 3f40 192e e3bf 97ce 5840
00000230: 4c96 743e 60e3 8640 2d71 40bf 3133 503d
00000240: 9fb7 92be 5281 6840 0d67 9ebf deb6 173e
00000250: 72c5 7740 c995 5a40 dd6c a840 f4e4 6340
00000260: fb6c 3e3f 72c5 5c3f f982 07c0 b5a5 25c0
00000270: c1b9 e43f 10d8 1440 e9a4 0f40 0253 4540
00000280: c09f b73f 50b3 5340 9960 b5bf 3f88 3d3f
00000290: efac 3340 825a 3440 0c8a 7440 8c89 8240
000002a0: 9ac8 88bf 2d9e 41bf 1e89 ce3c bf7e 3140
000002b0: 5ce1 963f 34d6 163f 53d9 553f a3d4 863f
000002c0: 69fa 0840 4589 5d40 fd33 31c0 6b2b 2340
000002d0: debf 753f 0644 94bf 6178 25be 7582 2940
000002e0: 3052 b53f 77d9 9a40 729e 3c40 1c7c a53f
000002f0: a744 f0bf 5cb9 a63f 7a86 9abf 8c45 0d3f
00000300: da7e 573f 2f1f fa3f 1ca8 50be ab72 01c0
00000310: c0fc d33f 605d cf3e f3bb d2bf 2fee aec0
00000320: dd4f 5440 df1a d93f af2f 193f 0854 623e
00000330: cc5c bd3f 7fa0 5540 4120 c53f bfed 773f
00000340: 332b d9bf 47aa a140 1130 e33e a867 2640
00000350: 24d3 0c40 c6ae a8be bff7 cc3f 673f 693f
00000360: 3a88 d93f b082 b3be 0006 843f 1501 74bf
00000370: 9873 18c0 efb2 7c3f d820 96bf dbae 0f3f
00000380: 043d 69c0 b59f dd3f 7d00 b83f f83a a73f
00000390: d7f3 1140 3a46 683f d007 cf3f 8048 7ebf
000003a0: 2704 3940 a360 4d40 8a82 2a40 5059 4b3f
000003b0: 2c33 3840 bb7a c0be 55ab f73f 27be 5940
000003c0: 043f d83e 8cb5 7e3f 48c3 6e3f c1f0 71bf
000003d0: fe5d 96c0 e1fe c73f ed0e d2c0 aad5 a23f
000003e0: 5c3e 4b40 6912 1240 8b27 3ac0 0050 7140
000003f0: cdd3 6c40 1890 77be fc88 80c0 ca3e 1740

bn1.running_var f4 [256]
5.79583 2.2673204 8.730421 2.230135 3.6050172 3.1959598 8.036105 2.6965504
3.6462514 3.0343406 4.789889 3.5723999 6.6473927 9.324052 4.636166 13.706401
4.5625315 3.00774 3.4135323 4.552805 5.4210668 2.518064 4.9214225 2.9325268
4.9712768 3.3326366 3.8118951 2.9258413 3.039916 3.1208737 3.9137492 5.3842616
4.1166945 3.9475212 3.0084293 3.8901944 7.4769893 6.4025936 3.9859502 4.3275056
2.2880878 4.7521415 4.7355375 4.267495 8.418565 2.2343163 4.0999136 4.6242757
3.8100069 3.5173123 4.373885 3.730656 3.7329943 2.0520222 2.9911692 4.717176
7.502448 9.256816 6.4407034 6.4702277 7.085233 3.4743109 3.8794332 4.990346
2.1748743 2.2687588 3.015528 6.3754973 2.457021 4.3369284 2.5909226 4.218723
4.320694 4.619719 6.9225497 8.467869 2.607225 8.493849 5.010409 2.402039
2.7971203 5.2441783 6.6351113 5.184396 2.2121673 4.387763 3.1699955 2.2972298
3.2264814 2.8182375 3.320184 3.633677 3.2628505 1.8916941 2.3294435 2.896292
7.1178236 4.7706037 3.3229725 5.143989 10.676534 4.114407 3.7078505 6.721249
5.768802 3.4835985 3.50873 4.6098876 3.5798728 7.1525006 3.6574948 4.223492
5.063055 2.9531791 4.840712 2.626128 3.698373 3.8513806 4.2237945 4.9927697
5.0532527 3.908162 4.875501 3.9564264 3.3228288 2.5463684 7.1051383 6.299759
5.0084767 3.2182062 4.2928987 5.9479876 5.6745915 3.7622268 3.1486652 6.596941
6.9168563 10.4446945 3.005768 3.3731084 1.6068757 2.8950655 2.2293005 3.9243674
2.7515948 8.153434 4.113405 7.129357 4.4117618 7.7681684 3.7784488 2.7541616
8.571333 3.298105 4.4799685 5.709461 9.908371 4.0188303 2.2523634 4.791026
14.626401 7.868619 6.2275376 9.7279 2.6849377 7.2788024 5.9582987 9.247695
5.1423845 3.242176 3.285717 2.2956564 5.026378 3.6954186 4.699231 5.2657685
5.3973355 5.5559406 3.2687876 9.921354 2.4197707 3.3253832 3.0853658 5.279509
3.6690612 3.4369116 5.8149905 9.644636 4.3141203 5.7410846 3.0467308 2.6778529
5.438834 1.9409984 3.7932434 5.4515424 8.025431 7.0317526 5.8112764 2.9736896
3.4994047 2.8303988 2.4938116 3.8613906 11.820204 2.3697643 6.0012574 2.841466
5.035512 4.010449 2.598893 5.5160456 3.1429884 2.7358258 3.7958436 4.39851
2.697394 4.9382715 3.953211 4.7909093 2.8544352 3.9789555 2.6935306 5.5950265
6.0725093 6.2608833 5.1458664 2.7855623 3.153524 5.13861 3.2517285 3.61791
4.7082872 4.2846665 6.888073 7.906486 12.080874 3.9334624 2.8711467 4.790291
2.6095529 5.1168036 5.7696877 6.4290304 9.180341 3.8236864 3.692491 4.1217074
4.037507 4.778701 3.1653564 13.424979 4.9203467 3.3315597 4.3286657 2.8875895
00000000: 7077 b940 c71b 1140 ceaf 0b41 88ba 0e40
00000010: 9ab8 6640 9b8a 4c40 e393 0041 4894 2c40
00000020: 2f5c 6940 a332 4240 c546 9940 33a2 6440
00000030: 71b7 d440 512f 1541 795b 9440 6b4d 5b41
00000040: 4200 9240 d07e 4040 5077 5a40 94b0 9140
00000050: 6179 ad40 f627 2140 4b7c 9d40 85ae 3b40
00000060: b314 9f40 eb49 5540 17f6 7340 fc40 3b40
00000070: fc8d 4240 65bc 4740 de7a 7a40 df4b ac40
00000080: f6bb 8340 30a4 7c40 1b8a 4040 f2f8 7840
00000090: 7f43 ef40 0ce2 cc40 cf19 7f40 ed7a 8a40
000000a0: 0870 1240 8b11 9840 8689 9740 528f 8840
000000b0: 71b2 0641 0aff 0e40 7e32 8340 11fa 9340
000000c0: 27d7 7340 a51b 6140 def6 8b40 11c3 6e40
000000d0: 61e9 6e40 5554 0340 516f 3f40 1bf3 9640
000000e0: 0e14 f040 eb1b 1441 3e1a ce40 1b0c cf40
000000f0: 3bba e240 1c5b 5e40 a248 7840 eab0 9f40
00000100: 2431 0b40 5833 1140 69fe 4040 1304 cc40
00000110: d53f 1d40 1ec8 8a40 add1 2540 c7ff 8640
00000120: 2043 8a40 bdd4 9340 8785 dd40 647c 0741
00000130: c6dc 2640 cee6 0741 4555 a040 02bb 1940
00000140: 0504 3340 4fd0 a740 d552 d440 92e6 a540
00000150: 2694 0d40 8e68 8c40 35e1 4a40 d005 1340
00000160: ac7e 4e40 015e 3440 e57d 5440 2a8e 6840
00000170: 8bd2 5040 0823 f23f 9a15 1540 d95c 3940
00000180: 36c5 e340 c9a8 9840 95ab 5440 8f9b a440
00000190: 15d3 2a41 39a9 8340 6c4d 6d40 7914 d740
000001a0: 079a b840 47f3 5e40 088f 6040 3384 9340
000001b0: a31c 6540 49e1 e440 6514 6a40 d926 8740
000001c0: 8c04 a240 e300 3d40 1de7 9a40 7b12 2840
000001d0: 25b2 6c40 057d 7640 5329 8740 c5c4 9f40
000001e0: 3fb4 a140 541f 7a40 1b04 9c40 1736 7d40
000001f0: 3aa9 5440 b3f7 2240 4b5d e340 a097 c940
00000200: 7145 a040 17f7 4d40 6d5f 8940 ea55 be40
00000210: 4196 b540 53c8 7040 bb83 4940 241a d340
00000220: e356 dd40 781d 2741 815e 4040 02e1 5740
00000230: 1aae cd3f c148 3940 dcac 0e40 d628 7b40
00000240: 211a 3040 7774 0241 04a1 8340 b123 e440
00000250: 272d 8d40 d694 f840 1bd2 7140 2f44 3040
00000260: 2e24 0941 2714 5340 e75b 8f40 e8b3 b640
00000270: b088 1e41 429a 8040 b926 1040 1650 9940
00000280: bd05 6a41 bacb fb40 fd47 c740 7aa5 1b41
00000290: 05d6 2b40 f3eb e840 62aa be40 8ff6 1341
000002a0: 6a8e a440 d07f 4f40 3049 5240 09ec 1240
000002b0: 17d8 a040 bd81 6c40 1a60 9640 2d81 a840
000002c0: f9b6 ac40 44ca b140 d133 5140 debd 1e41
000002d0: 86dd 1a40 14d3 5440 a276 4540 bdf1 a840
000002e0: e6d1 6a40 5cf6 5b40 6714 ba40 6e50 1a41
000002f0: 460d 8a40 f7b6 b740 a3fd 4240 f161 2b40
00000300: ee0a ae40 a372 f83f 80c4 7240 0973 ae40
00000310: 2a68 0041 1e04 e140 faf5 b940 ee50 3e40
00000320: 3ff6 5f40 4125 3540 9c9a 1f40 0621 7740
00000330: 8e1f 3d41 38aa 1740 4d0a c040 94da 3540
00000340: ea22 a140 9955 8040 4354 2640 7283 b040
00000350: b926 4940 c517 2f40 1aef 7240 98c0 8c40
00000360: 1aa2 2c40 5206 9e40 6901 7d40 214f 9940
00000370: 11af 3640 35a7 7e40 ce62 2c40 750a b340
00000380: ff51 c240 2859 c840 f0aa a440 a746 3240
00000390: 56d3 4940 7e6f a440 521c 5040 d68b 6740
000003a0: 4aaa 9640 fd1b 8940 186b dc40 ef01 fd40
000003b0: 434b 4141 d9bd 7b40 dec0 3740 104a 9940
000003c0: ea02 2740 dbbc a340 48a1 b840 9eba cd40
000003d0: ade2 1241 47b7 7440 c651 6c40 07e5 8340
000003e0: 4233 8140 1eeb 9840 3395 4a40 b7cc 5641
000003f0: 7b73 9d40 4638 5540 6e84 8a40 44ce 3840

fc2.weight f4 [128, 256]
-0.003527376 -0.04061254 -0.08679431 -0.05369588 -0.018883405 0.033037506 -0.03216105 0.021974122
-0.06840765 -0.15808962 -0.029300395 -0.025040133 -0.12930529 0.0102579845 0.067896634 0.08789814
-0.04952363 -0.026171047 -0.08890565 -0.1123311 -0.045967326 -0.0904014 0.0058531454 0.043615907
-0.065772854 0.066549204 -0.114921354 0.07392199 0.06565913 -0.1358745 0.043721717 -0.062905975
0.06653352 -0.103819504 0.08118857 0.11510393 0.08221733 -0.012072852 0.004473626 -0.08501801
-0.08299248 -0.11407172 -0.00029856415 -0.09112269 0.0052002207 -0.07846067 -0.04862652 -0.08322082
0.13368212 -0.0956232 -4.9500184e-05 -0.08365507 -0.089651555 0.009072718 -0.10086668 0.13042115
0.024105268 0.022187732 0.0031437627 0.09598117 0.12512216 0.02126969 -0.06969293 -0.08201324
-0.02195172 0.0050144657 -0.013435871 -0.049907584 -0.043757815 -0.012850736 -0.08284923 -0.04443614
-0.055703387 -0.053620696 0.0016724769 0.06925547 -0.048653927 -0.06309928 0.15251237 -0.04761306
0.02041277 0.09169504 -0.05004434 0.0019542421 -0.013031312 0.005246242 -0.16446829 -0.16967909
-0.13413116 0.08777853 -0.034190606 -0.003824524 -0.03953991 -0.0754016 -0.20520508 -0.025108058
0.07366294 -0.043263707 -0.047385756 -0.10086668 -0.023194222 -0.0004790729 0.060293935 0.10085523
-0.10301742 0.0060526696 -0.14977738 -0.18139975 0.04053324 -0.10343266 -0.15633413 -0.012771073
-0.154666 -0.12231838 0.050947946 -0.03626709 -0.031988483 0.05336617 -0.024569377 0.14001778
0.035201825 0.0022529573 -0.08790783 0.066675745 0.000114927476 -0.103596516 0.15464067 0.08995549
-0.11808664 -0.0075314627 -0.071510784 0.06482638 0.16110654 -0.08873041 -0.041797247 0.047664527
0.07516139 0.05984799 0.05672961 -0.12626183 -0.12165798 -0.006190408 0.08391567 -0.041584942
0.033664737 0.084746055 -0.079811916 -0.031175258 -0.06439512 -0.06735839 -0.08550169 0.027083246
0.06391668 0.0137677025 -0.047124326 -0.020158557 0.015065887 -0.029125797 -0.07825358 0.0525699
0.06010624 0.18132274 0.13143441 0.0067056976 -0.22998987 -0.013611688 -0.04622312 -0.11473197
-0.009241565 0.0049267807 -0.10881828 0.07500097 0.02163214 0.10667666 -0.021604752 -0.02267226
0.031625636 -0.029501723 -0.0011797695 -0.023807397 -0.13448106 -0.10354149 -0.067039676 0.07282964
-0.04232848 -0.09425897 -0.058832288 -0.017022224 -0.044673644 -0.16408059 0.07288034 0.019356687
-0.12108529 -0.062687166 0.08985055 -0.048954133 -0.009772426 0.025925249 0.051409516 -0.12315271
-0.08975542 -0.014949794 -0.10326301 -0.06332852 -0.04547744 -0.17946292 0.03180877 -0.13058895
0.07989811 -0.046443447 0.021534033 -0.026895983 -0.12510738 0.13355617 -0.08816101 -0.116475746
-0.06354483 -0.031604446 -0.09368697 -0.05698807 -0.033752233 -0.08402502 -0.14909545 0.05233259
-0.03996982 0.02921399 0.0075267805 -0.08254146 -0.06913714 0.05392326 -0.16640013 -0.12006035
-0.037500393 0.012378526 -0.08367466 -0.040948957 0.12811635 0.035448607 0.03682034 0.037100684
-0.1035157 -0.008749889 -0.0025765488 0.08143441 -0.057653673 -0.18664625 -0.047697283 -0.047633506
0.05208614 -0.06043503 -0.044582315 -0.059620623 -0.024994472 -0.05841382 0.015456472 -0.118483245
00000000: 8d2b 67bb 5659 26bd 37c1 b1bd 36f0 5bbd
00000010: 5fb1 9abc 5652 073d 4ebb 03bd 1303 b43c
00000020: 4f19 8cbd 3fe2 21be 6207 f0bc f720 cdbc
00000030: 9b68 04be 1b11 283c 640d 8b3d f103 b43d
00000040: 4ad9 4abd aa64 d6bc 2a14 b6bd d90d e6bd
00000050: 3c48 3cbd 5f24 b9bd becb bf3b 98a6 323d
00000060: ebb3 86bd f34a 883d e35b ebbd 6a64 973d
00000070: 4b78 863d af22 0bbe 8b15 333d d9d4 80bd
00000080: ba42 883d 529f d4bd 3146 a63d 9cbb eb3d
00000090: 8f61 a83d 36cd 45bc 7f97 923b ec1d aebd
000000a0: f6f7 a9bd 6f9e e9bd 9a88 9cb9 889e babd
000000b0: 9d66 aa3b fdaf a0bd 9a2c 47bd ad6f aabd
000000c0: f7e3 083e 19d6 c3bd 6b9e 4fb8 5953 abbd
000000d0: 3c9b b7bd bda5 143c 3193 cebd 1f8d 053e
000000e0: 6978 c53c 0cc3 b53c 9607 4e3b c791 c43d
000000f0: 0620 003e c63d ae3c 2bbb 8ebd 8ff6 a7bd
00000100: 18d4 b3bc 6350 a43b 2122 5cbc e56b 4cbd
00000110: 653b 33bd e58b 52bc dbac a9bd ac02 36bd
00000120: 3c29 64bd 60a1 5bbd 0337 db3a d0d5 8d3d
00000130: 5749 47bd 323a 81bd 342c 1c3e e905 43bd
00000140: ae38 a73c 9cca bb3d 4bfb 4cbd be12 003b
00000150: 4981 55bc abe8 ab3b 606a 28be 5bc0 2dbe
00000160: ae59 09be 3bc5 b33d 730b 0cbd dea4 7abb
00000170: 9af4 21bd 276c 9abd 4821 52be 6aaf cdbc
00000180: 98dc 963d 4935 31bd 9117 42bd 3193 cebd
00000190: cf01 bebc 142c fbb9 c6f6 763d 308d ce3d
000001a0: ccfa d2bd 7955 c63b 3e5f 19be dbc0 39be
000001b0: 2f06 263d 81d4 d3bd 0e16 20be c33d 51bc
000001c0: c460 1ebe 0f82 fabd cbae 503d cd8c 14bd
000001d0: 5b06 03bd 7c96 5a3d b845 c9bc d260 0f3e
000001e0: ca2f 103d 5aa6 133b 0509 b4bd 4b8d 883d
000001f0: 3805 f138 692a d4bd 205a 1e3e 953a b83d
00000200: 69d7 f1bd 7dca f6bb 3f74 92bd b1c3 843d
00000210: 1df9 243e 4ab8 b5bd 9733 2bbd e13b 433d
00000220: 37ee 993d 2a23 753d 4f5d 683d c84a 01be
00000230: d227 f9bd e8d8 cabb fbdb ab3d f954 2abd
00000240: 09e4 093d 578f ad3d 6e74 a3bd 4163 ffbc
00000250: 97e1 83bd 32f3 89bd 831b afbd afdd dd3c
00000260: c0e6 823d ee91 613c 7005 41bd 8f23 a5bc
00000270: e9d6 763c 3999 eebc 6a43 a0bd 8953 573d
00000280: f631 763d abac 393e be96 063e 78bb db3b
00000290: 7782 6bbe 8f03 5fbc 7454 3dbd 98f8 eabd
000002a0: ef69 17bc d570 a13b 1edc debd 1c9a 993d
000002b0: e335 b13c 4b79 da3d 73fc b0bc 2dbb b9bc
000002c0: e289 013d 99ad f1bc 7fa2 9aba bb07 c3bc
000002d0: 67b5 09be 900d d4bd 194c 89bd b527 953d
000002e0: a160 2dbd d90a c1bd 20fa 70bd 3172 8bbc
000002f0: b6fb 36bd be04 28be 4a42 953d ea91 9e3c
00000300: 91fb f7bd 2162 80bd 9103 b83d 2184 48bd
00000310: 871c 20bc 3061 d43c c992 523d 7d37 fcbd
00000320: b1d1 b7bd fbef 74bc 8f7b d3bd 62b2 81bd
00000330: 8d46 3abd 21c5 37be ea49 023d 1cb9 05be
00000340: 9fa1 a33d 7c3b 3ebd 2468 b03c f754 dcbc
00000350: 261c 00be f3c2 083e c28d b4bd d68a eebd
00000360: cb23 82bd aa73 01bd f4de bfbd 536c 69bd
00000370: c83f 0abd 4f15 acbd 7aac 18be b35a 563d
00000380: 65b7 23bd 2d52 ef3c 36a3 f63b 7f0b a9bd
00000390: c697 8dbd a3de 5c3d cc64 2abe 33e2 f5bd
000003a0: 039a 19bd 4dcf 4a3c 9f5d abbd 18ba 27bd
000003b0: ef30 033e 8f32 113d edd0 163d e3f6 173d
000003c0: 0a00 d4bd b25b 0fbc 51db 28bb 15c7 a63d
000003d0: 4226 6cbd 3220 3fbe 3a5e 43bd 5a1b 43bd
000003e0: 4758 553d b98a 77bd f29b 36bd c134 74bd
000003f0: 35c1 ccbc 5443 6fbd 243d 7d3c 58a7 f2bd

fc2.bias f4 [128]
-1.9655226e-07 6.6068656e-06 -8.7705885e-06 8.262115e-06 1.0524284e-05 -2.5684523e-05 1.1217775e-05 1.3198463e-05
-1.18474245e-05 1.22227875e-05 2.5820047e-05 1.4037252e-05 -1.8197347e-06 -2.4777341e-06 1.8230769e-05 7.491708e-07
-2.3467815e-05 -1.3132807e-05 -3.0263136e-06 2.2333239e-05 -1.9208956e-06 -2.1466e-05 -1.5277279e-05 1.2507098e-07
-6.8952068e-06 2.4121471e-05 7.459604e-06 -7.631651e-06 -6.8024437e-06 -1.6319447e-05 -2.8056751e-05 6.5624135e-06
-2.5898167e-05 -9.2210075e-07 1.9114697e-05 2.0157873e-05 1.9231971e-05 -3.992366e-05 1.0416884e-05 3.686404e-06
2.441892e-06 1.4260933e-05 -1.6787406e-05 1.4794641e-05 -9.25093e-06 6.4184596e-06 -1.112197e-05 -2.9746925e-05
1.3376939e-05 -1.8375977e-05 -8.022909e-06 8.20494e-06 2.5446025e-06 4.970756e-06 2.7904998e-06 4.4117496e-07
-3.862352e-06 5.7244733e-06 -1.946014e-05 7.504136e-06 -2.0740259e-05 1.85519e-05 -5.1972374e-06 -6.447102e-06
-3.1265363e-06 1.0179402e-05 4.616878e-06 -1.0047983e-05 2.2771762e-06 8.949669e-06 -3.3093114e-05 7.197993e-06
-1.2576909e-05 9.185851e-06 -7.59318e-06 1.4082267e-05 1.3397933e-05 2.1186643e-06 1.1490703e-05 -9.779704e-07
-4.2371444e-06 -5.697326e-06 -1.4019198e-05 -1.4532145e-05 -2.4319657e-05 -1.2422734e-05 2.4670044e-06 1.8566259e-06
-1.6544338e-05 1.2950715e-05 -2.3891553e-05 1.7683145e-05 -3.2324842e-05 -1.882321e-05 1.1531245e-05 1.0766377e-05
-3.2185949e-06 8.7375975e-07 -9.621637e-06 -3.1103855e-06 9.117856e-06 -6.975644e-06 -1.318024e-05 -1.5866563e-05
1.7015245e-05 6.6694533e-06 7.704349e-06 -8.977145e-06 3.7890659e-06 -9.567622e-06 7.2417283e-06 3.847582e-06
-9.099556e-06 8.743869e-06 -2.4585643e-07 -8.297251e-06 1.0130913e-05 6.067973e-06 -1.6081583e-05 -3.8690787e-06
1.0045573e-05 -1.9445026e-05 8.866331e-06 -1.4469802e-05 -2.0194893e-05 1.1547841e-06 1.9747707e-05 -1.151167e-05
00000000: e00b 53b4 8bb0 dd36 6425 13b7 849d 0a37
00000010: 7591 3037 1875 d7b7 fa33 3c37 f86e 5d37
00000020: 4dc4 46b7 7910 4d37 2198 d837 8a81 6b37
00000030: 9c3d f4b5 2647 26b6 47ee 9837 a01a 4935
00000040: c0dc c4b7 fa54 5cb7 ac17 4bb6 4458 bb37
00000050: bce8 00b6 e211 b4b7 b527 80b7 404b 0634
00000060: 605d e7b6 7758 ca37 834d fa36 b109 00b7
00000070: 8c40 e4b6 bfe5 88b7 6a5b ebb7 b432 dc36
00000080: e43f d9b7 4886 77b5 8058 a037 b418 a937
00000090: 5854 a137 b473 27b8 2dc4 2e37 f063 7736
000000a0: 63df 2336 3e42 6f37 aed2 8cb7 8036 7837
000000b0: 7134 1bb7 265e d736 7f98 3ab7 0989 f9b7
000000c0: 846d 6037 1c26 9ab7 229a 06b7 f3a7 0937
000000d0: f0c3 2a36 78ca a636 6c44 3b36 a0da ec34
000000e0: 5a99 81b6 da14 c036 553e a3b7 0acc fb36
000000f0: 5efb adb7 e79f 9b37 ee63 aeb6 2f54 d8b6
00000100: 7cd1 51b6 33c8 2a37 aeea 9a36 c293 28b7
00000110: 97d1 1836 8926 1637 76cd 0ab8 4a86 f136
00000120: 6a01 53b7 ee1c 1a37 ebc8 feb6 e042 6c37
00000130: afc7 6037 602e 0e36 32c8 4037 cf42 83b5
00000140: cb2c 8eb6 a82b bfb6 ff33 6bb7 16cf 73b7
00000150: 1102 ccb7 3c6b 50b7 d08e 2536 2e31 f935
00000160: b2c8 8ab7 e646 5937 b86a c8b7 4456 9437
00000170: 8994 07b8 89e6 9db7 5276 4137 3da1 3437
00000180: 0aff 57b6 508c 6a35 9e6c 21b7 04bc 50b6
00000190: e5f8 1837 5310 eab6 b320 5db7 2f19 85b7
000001a0: f6bb 8e37 2bca df36 ed41 0137 8b9c 16b7
000001b0: a847 7e36 a084 20b7 f9fd f236 7a1a 8136
000001c0: 4caa 18b7 a2b2 1237 40fe 83b4 6c34 0bb7
000001d0: f1f7 2937 7e9b cb36 f0e6 86b7 22d3 81b6
000001e0: 6889 2837 e01d a3b7 9ac0 1437 54c3 72b7
000001f0: 3468 a9b7 14fe 9a35 e1a7 a537 3f22 41b7

bn2.weight f4 [128]
0.99690324 0.98386586 0.9337714 0.89134514 0.99408317 0.9232964 1.076509 0.9472557
1.0569963 0.94884914 1.0175878 1.1035342 1.0272156 0.8732675 0.89786863 0.95443594
0.89567745 0.9892257 0.9403561 0.9298456 0.90844077 0.8872358 1.1383156 0.97129124
0.85892206 1.0082095 0.94609493 0.8900069 1.0080136 1.0578167 0.9113963 0.8712927
0.9092202 0.9322082 0.90964097 0.9382128 0.8622637 0.98499316 0.84763366 1.0495805
1.2371801 0.93820655 1.0061424 1.0390869 0.9434916 1.047934 0.86316633 1.0896384
0.9705889 0.98362345 0.975805 0.869248 1.0483977 1.0421293 1.0287057 1.1587381
1.019119 1.0869839 0.92443365 0.95792717 0.9438836 0.9498084 0.88382655 1.1880074
0.9105911 0.9495994 0.89580834 1.0085498 0.9149007 1.0657564 0.8785798 1.3559002
0.9731432 1.0579191 0.965681 1.0288454 1.0759006 0.8501665 0.94855046 0.9778
1.1662383 1.0470407 0.9933335 1.1067245 1.0344958 0.94445384 0.9764304 1.2461292
0.90963775 0.9481431 0.9517127 0.92562866 0.98222405 0.969252 0.9491073 1.0401037
1.067466 1.0085927 1.1744978 0.9550193 0.9895106 1.1940935 0.9092746 1.0826519
0.93906933 0.9513648 0.8871533 1.0054381 0.90421623 0.9935244 1.0018793 1.2722703
1.2358738 1.0805938 0.92799854 1.0782341 0.91930836 0.8867891 1.1551754 0.93454564
0.9747952 0.96636325 1.0398057 0.88831383 1.1277024 0.98287886 0.9746149 0.9214709
00000000: 0d35 7f3f a2de 7b3f a40b 6f3f 322f 643f
00000010: 3c7c 7e3f 275d 6c3f 0ccb 893f 597f 723f
00000020: a84b 873f c7e7 723f 5140 823f 9c40 8d3f
00000030: cd7b 833f 758e 5f3f b8da 653f ea55 743f
00000040: 1e4b 653f e53d 7d3f 2dbb 703f 5c0a 6e3f
00000050: 938f 683f e321 633f 53b4 913f 8ba6 783f
00000060: 51e2 5b3f 020d 813f 4733 723f 7ed7 633f
00000070: 9706 813f 8a66 873f 4551 693f 0a0d 5f3f
00000080: a8c2 683f 32a5 6e3f 3bde 683f b72e 703f
00000090: 50bd 5c3f 8328 7c3f 85fe 583f a758 863f
000000a0: eb5b 9e3f 4e2e 703f 46c9 803f cd00 853f
000000b0: aa88 713f b422 863f 78f8 5c3f 4579 8b3f
000000c0: 8478 783f bfce 7b3f 5bce 793f 0987 5e3f
000000d0: e531 863f 7e64 853f a1ac 833f 8851 943f
000000e0: 7e72 823f 4a22 8b3f afa7 6c3f b73a 753f
000000f0: 5ba2 713f a526 733f 7542 623f a010 983f
00000100: 801c 693f f218 733f b253 653f 2918 813f
00000110: ef36 6a3f b56a 883f 9bea 603f 238e ad3f
00000120: ea1f 793f e569 873f df36 773f 35b1 833f
00000130: 1cb7 893f 83a4 593f 34d4 723f 1a51 7a3f
00000140: 4c47 953f 6e05 863f 1b4b 7e3f 26a9 8d3f
00000150: 5c6a 843f bac7 713f 58f7 793f 2981 9f3f
00000160: 05de 683f 82b9 723f 72a3 733f 00f6 6c3f
00000170: 0973 7b3f e620 783f b2f8 723f 1e22 853f
00000180: baa2 883f 9119 813f f255 963f 257c 743f
00000190: 9150 7d3f 0ed8 983f 38c6 683f 5694 8a3f
000001a0: d966 703f a58c 733f 7b1c 633f 32b2 803f
000001b0: b77a 673f 9d57 7e3f 953d 803f c1d9 a23f
000001c0: 1d31 9e3f e650 8a3f 5091 6d3f 9303 8a3f
000001d0: cb57 6b3f 9c04 633f cadc 933f 623e 6f3f
000001e0: 2e8c 793f 9563 773f 5a18 853f 8968 633f
000001f0: 8d58 903f f39d 7b3f 5d80 793f 84e5 6b3f
